finrl/apps/cryptocurrency_trading/actor.pth (torch, 74919 bytes, 5 tensors)

net.0.weight f4 [128, 10]
0.028683731 0.25136116 0.028067056 0.28518462 0.33024552 0.13435464 0.048862766 0.21327713
0.32548502 0.25464344 -0.12230216 -0.0908508 -0.12792973 -0.20868507 -0.27664033 0.31245437
0.17723769 -0.08370782 0.20302783 0.20802292 -0.05246411 -0.17188908 -0.1293812 0.24273932
0.15483925 0.16100709 -0.18324813 -0.34216508 0.2635182 0.10930733 0.09699821 -0.28682986
0.1964291 0.089460485 0.16477357 0.014761216 -0.073069215 -0.37364256 -0.24221233 -0.1347066
0.19558714 -0.26774836 -0.07422805 -0.28323284 -0.002853742 -0.030079383 -0.20782597 0.1683419
0.059859313 -0.3095292 -0.22850822 0.26130512 0.17857373 0.08967362 0.23574811 0.17549984
0.15846351 -0.12762274 0.05449781 -0.05847492 0.1500493 0.039785773 -0.17186561 0.24916041
0.17736764 -0.2267734 0.23637575 -0.05555527 -0.1536662 -0.32086745 0.1611256 0.24258688
0.085930005 -0.33334503 -0.06322107 0.18848775 -0.13458797 -0.25382072 -0.17360067 -0.28213423
0.07165548 -0.3607358 0.17896365 0.057133272 0.12586536 -0.19612831 -0.070166826 0.23642604
0.12654532 -0.16090347 0.23122507 -0.1790945 0.14114808 -0.16915302 -0.11324669 0.20087397
-0.060286902 -0.016193599 -0.2529722 -0.12936965 -0.04810353 -0.3208113 0.22126815 -0.38269603
-0.12325283 0.00028390728 0.23716244 -0.060472045 -0.21547948 -0.3305687 -0.26455212 -0.19958313
0.001309892 -0.10804584 -0.114915 -0.30445063 -0.022415837 0.13780668 -0.1778591 0.18501194
0.10469342 0.3065911 0.06517696 0.12780227 0.036095034 -0.1498634 0.08489169 0.2495454
0.021543384 -0.2138524 0.22176729 -0.32889003 -0.25974017 0.027894454 -0.08409238 0.07608994
0.22249646 0.20704508 0.18158872 -0.25736025 -0.012164636 0.22140011 -0.15199317 0.22107954
-0.2101894 0.11688155 0.009882066 0.049102742 0.07751789 -0.14409173 -0.103665926 0.16678545
-0.07049033 0.25222003 0.07235529 -0.041605327 0.23778038 -0.29918528 -0.05813529 0.12044217
0.31580395 0.3264394 -0.06521827 -0.26986217 0.16706428 0.10616583 0.1683505 0.14348404
-0.22648105 0.11761967 -0.071289815 -0.29954165 -0.095628984 -0.058047984 -0.23997678 -0.0638429
-0.22743522 -0.20848766 -0.0017689965 -0.06289146 -0.416223 -0.30639806 -0.12579173 -0.2610011
0.04908722 0.011448775 0.0039556576 0.17669553 -0.29617244 -0.26754785 -0.25898355 -0.28799775
0.23538996 -0.34256023 0.07148852 0.047558755 -0.15927806 0.05186569 -0.14391124 -0.4054088
-0.123406366 0.07250221 -0.2998986 0.18442853 0.12750892 0.24529177 -0.32521564 0.2044741
-0.07224646 0.2978674 0.2951666 -0.06828591 -0.20744742 0.11093669 -0.12902772 -0.22918183
0.10906408 0.21564779 0.109224185 -0.13468373 -0.21598618 -0.34094465 0.26157817 -0.20091765
0.07511757 0.029683553 -0.2822736 0.14214692 -0.35050884 -0.2756185 -0.2311677 -0.24763656
0.26673654 -0.114749394 0.06498898 -0.3203866 -0.2823018 -0.01377983 -0.26963842 -0.37488592
0.19582038 -0.09175579 -0.28406686 -0.027759831 -0.10603224 -0.06186702 -0.18855715 -0.25630313
0.11334074 -0.25542468 0.12192287 0.05698226 0.25421858 0.02697657 0.020201912 0.116204746
00000000: 25fa ea3c 69b2 803e e2ec e53c b803 923e
00000010: f115 a93e 4394 093e 5324 483d 5265 5a3e
00000020: f9a5 a63e a060 823e 8e79 fabd fc0f babd
00000030: 0300 03be 8ab1 55be cda3 8dbe 05fa 9f3e
00000040: cc7d 353e 016f abbd 87e6 4f3e f603 553e
00000050: 9be4 56bd b103 30be 817c 04be a890 783e
00000060: 2e8e 1e3e 0bdf 243e 66a5 3bbe 4330 afbe
00000070: dceb 863e 85dc df3d ffa6 c63d 5ddb 92be
00000080: b624 493e 0f37 b73d 67ba 283e 07d9 713c
00000090: 50a5 95bd 144e bfbe 8206 78be 87f0 09be
000000a0: ff47 483e 5016 89be e004 98bd e503 91be
000000b0: d905 3bbb 0a69 f6bc 55d0 54be d261 2c3e
000000c0: 0a2f 753d 9c7a 9ebe 0ffe 69be c9c9 853e
000000d0: 08dc 363e cea6 b73d f467 713e 3bb6 333e
000000e0: 4244 223e 89af 02be 1839 5f3d 6683 6fbd
000000f0: 86a6 193e 68f6 223d 8afd 2fbe e823 7f3e
00000100: dd9f 353e 4937 68be 7c0c 723e ec8d 63bd
00000110: ac5a 1dbe bd48 a4be 1cfe 243e b268 783e
00000120: 12fc af3d 33ac aabe 0c7a 81bd ef02 413e
00000130: 6ed1 09be caf4 81be 60c4 31be e673 90be
00000140: 1cc0 923d 5db2 b8be 3f42 373e 9404 6a3d
00000150: d9e2 003e dcd5 48be a0b3 8fbd ab19 723e
00000160: 1995 013e e1c3 24be 44c6 6c3e 8c64 37be
00000170: 1f89 103e 7336 2dbe e1ed e7bd e8b1 4d3e
00000180: 66ef 76bd 70a8 84bc 9285 81be 7a79 04be
00000190: 3508 45bd 6141 a4be 1e94 623e bcf0 c3be
000001a0: fb6b fcbd 64d9 9439 b6da 723e 89b1 77bd
000001b0: a7a6 5cbe 4d40 a9be 6073 87be 855f 4cbe
000001c0: afb0 ab3a 2347 ddbd 8e58 ebbd f4e0 9bbe
000001d0: 6ba1 b7bc 321d 0d3e b220 36be c573 3d3e
000001e0: 8169 d63d 82f9 9c3e 7f7b 853d 99de 023e
000001f0: 63d8 133d cb75 19be b2db ad3d d488 7f3e
00000200: c07b b03c 20fc 5abe f716 633e 4664 a8be
00000210: aafc 84be e982 e43c a038 acbd 0bd5 9b3d
00000220: 1dd6 633e a003 543e 65f2 393e b9c4 83be
00000230: 2e4e 47bc b6b6 623e 19a4 1bbe ad62 623e
00000240: e43b 57be 985f ef3d 64e8 213c f51f 493d
00000250: b3c1 9e3d c88c 13be cd4e d4bd cec9 2a3e
00000260: 3c5d 90bd fc22 813e 032f 943d 596a 2abd
00000270: b37c 733e d02e 99be 451f 6ebd 62aa f63d
00000280: 0eb1 a13e 1123 a73e 2891 85bd 602b 8abe
00000290: e612 2b3e 786d d93d 1364 2c3e 7bed 123e
000002a0: a6ea 67be 95e2 f03d 6500 92bd 865d 99be
000002b0: 21d9 c3bd b9c3 6dbd 79bc 75be 11c0 82bd
000002c0: c7e4 68be ca7d 55be acdd e7ba 3dcd 80bd
000002d0: 2e1b d5be 35e0 9cbe 8ccf 00be f0a1 85be
000002e0: ae0f 493d a593 3b3c 769e 813b acef 343e
000002f0: eaa3 97be 08fc 88be 7e99 84be 7174 93be
00000300: 110a 713e 0e64 afbe 9368 923d f8cc 423d
00000310: ca19 23be 1e71 543d 785d 13be be91 cfbe
00000320: 7abc fcbd 0a7c 943d 4f8c 99be d5da 3c3e
00000330: b391 023e c42d 7b3e aa82 a6be a961 513e
00000340: f4f5 93bd 1382 983e 1420 973e 7cd9 8bbd
00000350: 196d 54be c632 e33d d81f 04be a4ae 6abe
00000360: fd5c df3d c6d2 5c3e eeb0 df3d 88ea 09be
00000370: 7b2b 5dbe 4c90 aebe 93ed 853e 5bbd 4dbe
00000380: 3ed7 993d ec2a f33c 2a86 90be f68e 113e
00000390: e575 b3be de1d 8dbe 3ab7 6cbe 7094 7dbe
000003a0: b191 883e bb01 ebbd f118 853d b609 a4be
000003b0: dd89 90be ccc4 61bc 0c0e 8abe 0cf1 bfbe
000003c0: 2385 483e 76ea bbbd 3671 91be 9668 e3bc
000003d0: 6e27 d9bd 4668 7dbd 2015 41be 2a3a 83be
000003e0: 311f e83d 06c7 82be b3b2 f93d 3b66 693d
000003f0: f028 823e f8fd dc3c 7b7e a53c c1fc ed3d

net.0.bias f4 [128]
-0.16489464 0.20800221 -0.05584138 -0.28424054 -0.1434772 -0.049749468 -0.02457283 0.15277976
-0.15984957 0.24777162 -0.075497694 -0.2328902 0.06780921 -0.2580873 -0.21945286 0.2634523
-0.048973646 0.025040997 -0.23469563 0.13078107 0.033178315 -0.0799005 0.04326914 0.22682738
0.21620591 0.020177145 0.15797055 -0.23940443 -0.35042298 0.2372765 -0.16801634 0.2784383
-0.109252274 0.052654713 0.1587353 -0.18716472 -0.3687202 -0.19904579 0.14243214 0.12913108
-0.05557544 0.10374407 -0.07674817 0.22659478 0.23166698 0.14200316 0.14211647 0.2871189
0.10971788 -0.16454825 -0.09364894 -0.2383935 0.10213483 0.05530558 -0.3626729 -0.20902655
0.3149241 0.041435234 0.118495636 -0.1670266 0.05772789 -0.20535883 -0.19494791 0.13575047
0.10494695 -0.23383443 -0.4025706 0.17437159 0.008535943 0.33706746 0.16976702 -0.22123678
-0.122908294 0.17380644 -0.30353832 -0.35880962 0.22338103 -0.05671351 0.23618044 -0.23585878
-0.16004696 0.067948155 -0.35099185 -0.11241469 -0.06087182 0.07612277 0.37537268 -0.29189268
-0.26101995 0.06798473 -0.28248456 0.15368819 -0.22326106 -0.06015735 -0.055954136 0.14043283
-0.022633856 0.012020701 -0.31254458 -0.2108443 -0.30333337 -0.18015508 -0.11302812 -0.24409376
-0.07652507 -0.24021699 0.088995114 0.121947534 -0.27590734 0.18258476 0.05790173 -0.052392665
-0.08092808 -0.22604434 -0.1215167 0.13372642 0.07273869 -0.340155 -0.040356707 -0.033065867
-0.23871043 0.017669816 0.17197962 0.050529838 0.04008312 -0.11162075 -0.26965955 -0.0055398154
00000000: 24da 28be 88fe 543e eeb9 64bd fa87 91be
00000010: b0eb 12be 19c6 4bbd f64c c9bc 4c72 1c3e
00000020: 9baf 23be d8b7 7d3e 899e 9abd c57a 6ebe
00000030: 8edf 8a3d 0524 84be 40b8 60be 38e3 863e
00000040: 9798 48bd c722 cd3c 0d54 70be 79eb 053e
00000050: fce5 073d e0a2 a3bd fb3a 313d 7045 683e
00000060: 1565 5d3e 8a4a a53c 08c3 213e 6f26 75be
00000070: a46a b3be 9cf8 723e 7a0c 2cbe 778f 8e3e
00000080: a8bf dfbd 78ac 573d 828b 223e 1ca8 3fbe
00000090: e5c8 bcbe a9d2 4bbe bbd9 113e f03a 043e
000000a0: 13a3 63bd c577 d43d 252e 9dbd 7608 683e
000000b0: 1c3a 6d3e 4769 113e fb86 113e 4001 933e
000000c0: c5b3 e03d 567f 28be 04cb bfbd 6d1d 74be
000000d0: 112c d13d 1b88 623d 43b0 b9be 0e0b 56be
000000e0: bb3d a13e feb7 293d d7ad f23d 0509 2bbe
000000f0: 1474 6c3d 9649 52be 6da0 47be 2c02 0b3e
00000100: 6dee d63d 4b72 6fbe bc1d cebe 778e 323e
00000110: 57da 0b3c 1b94 ac3e 68d7 2d3e e58b 62be
00000120: 58b7 fbbd 51fa 313e 6069 9bbe e5b5 b7be
00000130: ffbd 643e 6d4c 68bd 49d9 713e f784 71be
00000140: 5ae3 23be 6728 8b3d 34b5 b3be ac39 e6bd
00000150: bb54 79bd 41e6 9b3d d930 c03e f572 95be
00000160: 68a4 85be 943b 8b3d d1a1 90be 7060 1d3e
00000170: 8c9e 64be 8e67 76bd 2a30 65bd a0cd 0f3e
00000180: a36a b9bc 79f2 443c d805 a0be 91e7 57be
00000190: 834e 9bbe 937a 38be 497b e7bd b7f3 79be
000001a0: 2db9 9cbd 71fb 75be 1243 b63d a1bf f93d
000001b0: ba43 8dbe 80f7 3a3e 5d2a 6d3d b199 56bd
000001c0: 9fbd a5bd 2b78 67be bfdd f8bd 94ef 083e
000001d0: 06f8 943d cc28 aebe 134d 25bd 1370 07bd
000001e0: 8270 74be 4ac0 903c 6d1b 303e 60f8 4e3d
000001f0: 332e 243d 6b99 e4bd d110 8abe 5787 b5bb

net.2.weight f4 [128, 128]
0.052781034 -0.016937818 0.062096637 -0.07309318 -0.1570451 0.026695421 -0.017400185 -0.10427148
-0.06899916 -0.05459706 -0.09280158 -0.044665914 -0.012334144 -0.09223692 -0.0090978565 0.0292093
-0.040358137 -0.109029695 -0.14431131 0.061491918 0.015042365 -0.033564825 0.035510745 -0.08341331
-0.10942726 0.043297138 0.00028261216 -0.12160622 -0.06486293 0.0678559 -0.015337997 0.028626492
-0.19946371 0.025060097 -0.25657704 -0.040848386 -0.12690246 -0.014230528 0.014488217 0.048416987
-0.024431894 -0.062380392 -0.018135475 0.114345394 0.016983438 0.06300201 -0.00945819 0.06746316
0.09231142 -0.13842721 -0.050016604 -0.16996285 -0.04029974 0.095780164 -0.0002675929 0.06479373
0.061096236 -0.18182907 -0.08773084 0.022239156 -0.07935688 -0.0152544705 -0.050458606 -0.018594434
-0.08014406 0.031420488 -0.104201205 0.08641163 -0.13331069 0.019097583 0.04095449 -0.00018377368
0.01140018 -0.046444517 -0.049426902 -0.122592755 0.13324109 -0.11612053 -0.029909732 -0.029696692
-0.007937473 0.020935688 -0.09809905 0.051291082 0.02770051 -0.04905902 0.100047454 0.06777506
0.053882096 -0.04864692 -0.018423615 -0.06555149 -0.23100205 0.0011514588 -0.008931939 0.09178278
-0.007256935 -0.08827234 0.028097603 -0.059053853 -0.058906518 -0.07682007 -0.042927764 -0.056345783
-0.02976132 0.120039985 0.029861378 0.049921177 -0.01313328 -0.05408337 0.0051107537 0.060635474
0.10128857 -0.07829471 -0.03818903 0.07390946 -0.016457764 -0.03194196 -0.10626841 0.029539887
-0.09252427 -0.04452452 0.006943836 -0.013756714 0.045947015 0.07666578 -0.0035794184 -0.036041554
-0.1510579 -0.066035345 -0.08461333 -0.011886416 -0.03284517 -0.03225498 -0.027341664 0.03118038
0.023740001 0.020809451 -0.05210272 0.06325075 0.007974264 -0.07899172 -0.066674374 0.026811583
-0.08478226 0.06307109 -0.06906851 0.057821434 0.028480157 0.020451175 0.004813919 0.07252553
-0.025618484 0.031288877 0.04962419 -0.023411624 -0.10276764 0.021132924 0.011487151 -0.02880123
-0.013316653 -0.061241467 0.09524409 0.020061688 -0.029820288 -0.005280291 -0.059956323 -0.07635156
-0.09354695 0.040395238 0.03160404 -0.01622763 -0.035271015 -0.10279692 0.0046231686 -0.11570461
-0.10489105 0.056867488 0.07120634 0.011395615 -0.030244287 -0.053463437 -0.054342113 -0.097434945
-0.009492111 -0.075225145 -0.06598371 0.008861261 -0.09280645 0.011979179 -0.072285205 0.019187547
0.0366523 0.028216464 -0.037680957 -0.03094069 0.0330048 -0.036558885 -0.09388937 -0.025887989
0.018397493 -0.023337517 0.04095973 0.047049884 -0.09428539 -0.01940074 -0.02463771 -0.036557693
-0.06872837 -0.068619 0.0820174 0.03612094 -0.12017359 0.07495278 0.037580416 0.03590157
-0.105587505 0.0359736 0.029686498 -0.06913027 0.05027691 0.0045398404 0.03669022 0.04769444
0.054412194 0.036964025 0.05864454 -0.073364384 0.07681609 -0.06613424 -0.040152844 -0.06552568
-0.044934258 -0.006891496 0.061500303 0.036574963 0.07333924 0.06038129 0.0051927795 -0.062297467
0.04438785 -0.015860261 -0.10153103 -0.11201971 0.0351868 0.05504026 0.036827262 0.033569336
-0.06317757 -0.04652105 0.05818073 -0.05996255 0.0579576 -0.043830793 -0.052119642 -0.016630562
00000000: ed30 583d 2ec1 8abc 0b59 7e3d e1b1 95bd
00000010: 6ed0 20be 5bb0 da3c d58a 8ebc 498c d5bd
00000020: 6e4f 8dbd 2ba1 5fbd c10e bebd 9bf3 36bd
00000030: 2615 4abc b6e6 bcbd 2d0f 15bc 5848 ef3c
00000040: 934e 25bd f64a dfbd 58c6 13be f3de 7b3d
00000050: 4074 763c 457b 09bd b773 113d 99d4 aabd
00000060: 661b e0bd 5758 313d 902b 9439 af0c f9bd
00000070: dbd6 84bd 09f8 8a3d 394c 7bbc 1b82 ea3c
00000080: 3740 4cbe d54a cd3c 115e 83be a350 27bd
00000090: b8f2 01be 2927 69bc fd5f 6d3c e450 463d
000000a0: 6525 c8bc 9582 7fbd d990 94bc eb2d ea3d
000000b0: da20 8b3c 3307 813d 86f6 1abc 202a 8a3d
000000c0: c50d bd3d ddbf 0dbe 36de 4cbd be0a 2ebe
000000d0: 5711 25bd 6428 c43d b64b 8cb9 93b2 843d
000000e0: 0c40 7a3d 6631 3abe 3aac b3bd e42e b63c
000000f0: dc85 a2bd e3ed 79bc afad 4ebd 5b53 98bc
00000100: 9222 a4bd c5b2 003d 7167 d5bd 95f8 b03d
00000110: 9982 08be 8972 9c3c e5bf 273d 5fb3 40b9
00000120: d2c7 3a3c 9b3c 3ebd dd73 4abd e911 fbbd
00000130: 5a70 083e 9ad0 edbd 4105 f5bc 7a46 f3bc
00000140: 2d0c 02bc 5281 ab3c 28e8 c8bd 9916 523d
00000150: 2eec e23c 1cf2 48bd aee5 cc3d a7cd 8a3d
00000160: 79b3 5c3d fe41 47bd 1fed 96bc dc3f 86bd
00000170: cd8b 6cbe 8cec 963a 4457 12bc 9cf8 bb3d
00000180: 95cb edbb 21c8 b4bd f22c e63c 74e2 71bd
00000190: f647 71bd d753 9dbd 06d5 2fbd d6ca 66bd
000001a0: 03ce f3bc 86d7 f53d d99f f43c 267a 4c3d
000001b0: f82c 57bc 8686 5dbd 1c78 a73b e75c 783d
000001c0: 6270 cf3d fa58 a0bd 1a6c 1cbd d85d 973d
000001d0: 6fd2 86bc 93d5 02bd 41a3 d9bd a2fd f13c
000001e0: 5d7d bdbd 585f 36bd 1e89 e33b d763 61bc
000001f0: f032 3c3d f302 9d3d ad94 6abb 4fa0 13bd
00000200: ecae 1abe 8a3d 87bd c149 adbd 3ebf 42bc
00000210: a888 06bd cc1d 04bd a0fb dfbc ff6d ff3c
00000220: 647a c23c 9578 aa3c a969 55bd 9c89 813d
00000230: 7da6 023c 69c6 a1bd 938c 88bd f7a3 db3c
00000240: 52a2 adbd 6a2b 813d ca73 8dbd 2bd6 6c3d
00000250: 384f e93c 3989 a73c 14be 9d3b 4488 943d
00000260: dbdd d1bc c428 003d bc42 4b3d bcc9 bfbc
00000270: d777 d2bd f41e ad3c 9a34 3c3c 8ff0 ebbc
00000280: 172e 5abc 55d8 7abd 550f c33d 6958 a43c
00000290: ad49 f4bc 4b06 adbb c394 75bd 355e 9cbd
000002a0: 8b95 bfbd 7a75 253d 3d73 013d cfef 84bc
000002b0: 5778 10bd 3187 d2bd f37d 973b 8af6 ecbd
000002c0: 1ed1 d6bd e2ed 683d a1d4 913d acb4 3a3c
000002d0: dec2 f7bc 7afc 5abd d695 5ebd f98b c7bd
000002e0: cd84 1bbc a40f 9abd 7822 87bd d32e 113c
000002f0: 4f11 bebd 5244 443c 440a 94bd 342f 9d3c
00000300: b920 163d 3726 e73c 5957 1abd 5477 fdbc
00000310: 0b30 073d c5be 15bd 1249 c0bd 0c13 d4bc
00000320: 57b6 963c 522e bfbc 64c5 273d 61b7 403d
00000330: b318 c1bd 4dee 9ebc 06d5 c9bc 85bd 15bd
00000340: 76c1 8cbd 1e88 8cbd bdf8 a73d 8df3 133d
00000350: 921d f6bd d880 993d eced 193d 860d 133d
00000360: 433e d8bd 0e59 133d 1931 f33c 2c94 8dbd
00000370: 29ef 4d3d f1c2 943b 7c48 163d 3f5b 433d
00000380: 52df 5e3d 9767 173d 4235 703d 1140 96bd
00000390: c151 9d3d 6371 87bd 4f77 24bd 5432 86bd
000003a0: fc0c 38bd 0fd2 e1bb bee7 7b3d a1cf 153d
000003b0: e232 963d 5f52 773d 3128 aa3b a12b 7fbd
000003c0: 09d0 353d 61ed 81bc 80ef cfbd 976a e5bd
000003d0: 0920 103d e571 613d 2fd8 163d 0080 093d
000003e0: 3e63 81bd db8c 3ebd eb4e 6e3d 4a9b 75bd
000003f0: f364 6d3d eb87 33bd 687b 55bd d13c 88bc

net.2.bias f4 [128]
0.07634149 -0.15422587 -0.024018731 0.0510372 -0.09760252 -0.033987276 -0.097508416 -0.066812806
-0.00578018 -0.06655525 0.03768244 0.14864871 5.1260606e-05 0.114547454 -0.053065125 0.0109208785
0.012056621 -0.06737472 0.004042829 -0.07437736 0.07862535 0.030817728 -0.07397707 0.0029962976
0.028744824 -0.058888778 0.004902989 0.025869647 -0.011498559 0.008212223 -0.045181386 0.008488006
-0.0049588964 0.14218314 -0.0015559458 0.055301778 -0.06888324 0.07243734 -0.021418348 -0.024832722
-0.09303785 0.03058924 0.082828596 0.055558614 0.10772763 -0.09939429 0.040407445 0.052591052
-0.053938773 0.03029764 0.005573306 0.10061267 -0.034504853 0.050951056 -0.04422755 0.0077861305
0.06535965 0.039658338 -0.011826021 -0.015105713 -0.066262305 -0.03638666 0.009329369 -0.023483254
0.02018602 -0.0036248914 -0.011513498 0.11656271 0.15327163 0.041065082 -0.04787575 0.04708753
0.045386977 0.053422432 0.07245523 0.043476507 -0.068133906 -0.0013423172 0.002354847 0.009998167
-0.054867562 -0.008854572 -0.023496568 0.13752578 -0.0039680805 0.016388038 -0.042633213 -0.055964597
0.09800915 -0.08643445 0.1378165 -0.02931054 0.027390195 0.048341595 0.028917292 -0.009949209
-0.040061243 0.0409682 0.08382084 -0.05676669 -0.026470145 -0.036842473 -0.08297094 0.040667973
-0.044952977 -0.11740642 -0.077316016 0.04531093 0.055546876 -0.04070897 0.008432138 -0.016721068
0.10442523 -0.024644015 -0.030128464 0.06354472 -0.08128081 0.07774628 0.16845307 -0.08599286
-0.07549454 0.014110594 -0.024474805 -0.109888524 -0.12228113 0.036598206 -0.06535566 0.07410875
00000000: ed58 9c3d 63ed 1dbe eec2 c4bc 620c 513d
00000010: d4e3 c7bd 3e36 0bbd 7eb2 c7bd 27d5 88bd
00000020: aa67 bdbb 1e4e 88bd e758 1a3d 5e37 183e
00000030: a800 5738 db97 ea3d d15a 59bd 7ced 323c
00000040: 2289 453c c2fb 89bd b579 843b 2853 98bd
00000050: 5406 a13d 7675 fc3c 4a81 97bd 885d 443b
00000060: 447a eb3c 5c35 71bd 41a9 a03b 95ec d33c
00000070: 7464 3cbc 8f8c 063c 1e10 39bd 4711 0b3c
00000080: 3d7e a2bb 7598 113e e1f0 cbba 1e84 623d
00000090: a812 8dbd 075a 943d 8875 afbc fe6d cbbc
000000a0: a18a bebd 4996 fa3c 0aa2 a93d 6e91 633d
000000b0: 4ea0 dc3d 3c8f cbbd 4782 253d b769 573d
000000c0: e7ee 5cbd c232 f83c 48a0 b63b 040e ce3d
000000d0: f654 0dbd 0eb2 503d f327 35bd cc22 ff3b
000000e0: 48db 853d c870 223d edc1 41bc f47d 77bc
000000f0: 88b4 87bd 2e0a 15bd 36da 183c f45f c0bc
00000100: 275d a53c 968f 6dbb 1ca3 3cbc 6eb8 ee3d
00000110: 3df3 1c3e dc33 283d 5d19 44bd dbde 403d
00000120: b2e7 393d 7bd1 5a3d 6863 943d 6c14 323d
00000130: ca89 8bbd b1f0 afba c753 1a3b 5acf 233c
00000140: cfbc 60bd c412 11bc e07b c0bc 8fd3 0c3e
00000150: ac06 82bb 3540 863c 2aa0 2ebd 223b 65bd
00000160: 05b9 c83d 8b04 b1bd c51f 0d3e a81c f0bc
00000170: 6761 e03c d601 463d f5e3 ec3c 0202 23bc
00000180: 4217 24bd 45ce 273d 43aa ab3d 3084 68bd
00000190: ebd7 d8bc 22e8 16bd abec a9bd 7693 263d
000001a0: 9d20 38bd c772 f0bd dc57 9ebd f497 393d
000001b0: 1f85 633d 73be 26bd f326 0a3c 9ffa 88bc
000001c0: e5dc d53d 3fe2 c9bc f8cf f6bc bc23 823d
000001d0: 8e76 a6bd 7139 9f3d f67e 2c3e 061d b0bd
000001e0: e29c 9abd 1f30 673c 637f c8bc 3c0d e1bd
000001f0: 876e fabd 00e8 153d 30d9 85bd 54c6 973d

net.4.weight f4 [1, 128]
-0.087531336 0.006939053 0.005571309 0.0009502048 -0.0009243771 0.011292161 -0.00034616035 0.028951088
0.0010626878 0.0080799 0.03497129 0.05765432 -0.009900719 -0.043054674 -0.0043796757 0.0005185194
0.0014473276 0.00052850845 -0.057382807 0.011135383 0.0090340655 -0.0018101082 0.005444243 -0.00016632154
0.00019456423 -0.05504747 0.005508498 -0.0031411692 0.0014244784 0.00067166775 0.0007009953 0.03417137
-0.00022189823 -0.03912571 0.0071397354 0.05390302 -0.0006184506 -0.0036396564 0.006367813 -0.0018255058
0.006257089 0.000232828 0.012561608 -0.0028975783 -0.13008118 0.0021926651 0.04254268 -0.0048760544
-0.0036253922 0.012275245 0.02752961 0.0047763092 -0.0024241714 0.00813357 0.00035011856 0.009695728
-0.0011347012 0.0002142979 0.0036547163 -0.00027206275 -0.0016099775 0.013745653 0.043066636 -0.0035760554
0.033415727 -0.00046817277 0.014649362 -0.07934947 -0.04220782 -0.0033966755 0.00060900906 -0.014606309
0.0032712158 -0.0023668597 0.006322878 0.065258734 0.00037343317 -0.0011812049 0.00040255958 0.0014431672
0.0031575004 -0.0039026653 -0.0007649164 0.02420949 0.0019456672 0.00036637866 0.00023595199 0.004709741
-0.05211706 -0.0012364504 -0.11876985 -0.0006005075 0.0720471 0.017667904 -0.0071454085 0.005428673
0.0009851621 -0.013677688 -0.03359694 0.03318456 0.0072925384 0.0022204407 -0.00039356144 0.0053943084
0.00090692315 0.02615931 0.00352587 -0.030578686 0.0019184141 -0.0042637875 -0.0016986296 0.07044771
0.08072887 -0.005887056 -0.0039395913 -0.048423883 0.00071711955 -0.0038731154 -0.069920115 -0.0010481805
0.0015768419 -0.05851837 -0.0028428014 0.00082231086 -0.000573132 -0.02224113 0.0066477056 0.004183814
00000000: a143 b3bd ff60 e33b 878f b63b 2a17 793a
00000010: e651 72ba c202 393c db7c b5b9 d52a ed3c
00000020: e349 8b3a 8f61 043c 0e3e 0f3d f026 6c3d
00000030: a036 22bc 195a 30bd 6283 8fbb 3fed 073a
00000040: 41b4 bd3a 9a8b 0a3a 3c0a 6bbd 2e71 363c
00000050: 9e03 143c 2741 edba 9f65 b23b 9966 2eb9
00000060: f003 4c39 7579 61bd a180 b43b 13dc 4dbb
00000070: 90b5 ba3a dc12 303a 00c3 373a 47f7 0b3d
00000080: 5aad 68b9 4842 20bd 71f4 e93b 6ac9 5c3d
00000090: 841f 22ba 4d87 6ebb 16a9 d03b cf45 efba
000000a0: 4408 cd3b 4a23 7439 34cf 4d3c 4ce5 3dbb
000000b0: 0034 05be d1b2 0f3b 3c41 2e3d 4fc7 9fbb
000000c0: fd97 6dbb 1c1e 493c c785 e13c 9682 9c3b
000000d0: d9de 1ebb aa42 053c 1e90 b739 d5da 1e3c
000000e0: 41ba 94ba 28b5 6039 f783 6f3b a5a3 8eb9
000000f0: e105 d3ba 7335 613c a466 303d 415c 6abb
00000100: eede 083d 1675 f5b9 e103 703c fa81 a2bd
00000110: 1be2 2cbd c29a 5ebb e8a5 1f3a 4d4f 6fbc
00000120: e561 563b 511d 1bbb 2530 cf3b 5fa6 853d
00000130: 5ac9 c339 a9d2 9aba a20e d339 a828 bd3a
00000140: 11ee 4e3b dcc3 7fbb ac84 48ba fb52 c63c
00000150: c205 ff3a 8316 c039 e169 7739 2c54 9a3b
00000160: b378 55bd 6410 a2ba 9b3d f3bd 606b 1dba
00000170: 6e8d 933d 48bc 903c 0824 eabb 02e3 b13b
00000180: 8e20 813a 6218 60bc f29c 09bd 88ec 073d
00000190: 3ff6 ee3b d084 113b ec56 ceb9 bdc2 b03b
000001a0: 95be 6d3a 0d4c d63c 4812 673b 2780 fabc
000001b0: 4c73 fb3a 3eb7 8bbb 8da4 deba e446 903d
000001c0: 2e55 a53d 34e8 c0bb b017 81bb 1f58 46bd
000001d0: 14fd 3b3a 18d4 7dbb 4732 8fbd 1a63 89ba
000001e0: 09ae ce3a f5b0 6fbd 4b4e 3abb 5990 573a
000001f0: 3d3e 16ba 0833 b6bc ffd4 d93b 6018 893b
